models/model.onnx (onnx, 3153 bytes, 6 tensors)

0.weight f4 [12, 34]
-0.13143277 0.04870754 -0.07842718 0.33732754 -0.07215297 0.12536119 0.19288343 -0.081798606
0.07459408 -0.048693556 0.122779116 0.024177277 -0.22157426 0.2066952 0.27662623 -0.18680884
-0.10713624 -0.12223581 0.22447015 -0.049889665 0.12165 0.055739153 0.06943606 -0.004398084
-0.24542592 0.10329497 -0.08079064 0.12504102 -0.23059759 0.09803028 -0.12599422 -0.15517554
-0.0262453 -0.11134734 -0.07278101 -0.18380384 0.12159332 0.06717226 -0.13460799 -0.12658776
-0.15537336 -0.11719072 -0.04282575 -0.11637444 0.122676395 -0.08141943 0.13891691 -0.14705452
-0.17657574 0.0559949 0.15041563 -0.016650593 0.15474708 -0.061887156 0.06785218 0.123664804
0.0723198 -0.17676812 0.121841796 0.017908411 -0.14929616 -0.057738364 -0.14327803 -0.09880367
-0.1444001 -0.00039950514 -0.17434652 -0.085112125 -0.024082681 0.2783543 -0.028358446 0.10210216
0.032516636 0.28525314 -0.11841027 -0.051765945 -0.0078114113 0.04323678 0.09749219 -0.15547685
-0.063857615 -0.1379847 -0.024946311 -0.08380712 -0.016239379 0.05347252 -0.016432967 -0.08545748
-0.14274074 0.16997986 0.1317395 -0.09175516 0.022727683 -0.3173728 -0.03846442 0.15257812
0.15932286 -0.16208947 0.24975131 0.097363554 -0.10040922 0.07538451 0.0054416438 -0.031794745
-0.20789532 0.20171426 -0.12544183 0.109562464 0.1130441 -0.037796315 -0.15502773 -0.05016452
0.13392846 -0.02108038 -0.030472413 -0.06916893 -0.05186973 0.010449226 0.07160921 -0.1435274
-0.054860685 0.061414335 0.097550444 0.13018538 0.1901855 -0.0075082225 -0.06394906 -0.089239575
0.13026749 -0.30867288 0.04087777 -0.17985377 0.14849071 -0.2832212 0.13072412 0.0667892
-0.037831984 0.15581547 0.12882143 0.11747935 0.043576837 -0.10178166 -0.16360992 0.058498453
0.1028917 0.15236636 -0.048066985 -0.096721485 0.1273903 -0.16288288 -0.17343265 0.005686879
-0.15466215 0.021736218 0.123257205 -0.105029635 0.10387492 -0.001375193 0.078771785 0.06800439
0.0017869547 -0.10686044 -0.14338472 0.01715278 -0.11306773 -0.083237745 -0.01892678 -0.08698125
-0.0715528 -0.08437892 0.046096846 -0.03443393 0.16095465 -0.14268506 -0.014737114 0.07168479
0.10821573 0.05453353 0.18833622 -0.016895147 -0.0633668 -0.08076514 -0.109437965 -0.07798172
-0.0076425085 -0.033413544 0.17700364 -0.17141308 0.09922286 0.3246308 -0.063297845 0.18839633
-0.048901442 0.047574535 -0.19642626 -0.22374825 -0.1148164 -0.13560483 0.081019044 -0.11876404
0.1222706 0.15443209 -0.19648717 0.2065256 -0.024722634 0.33768198 0.12126296 0.13025086
-0.11835419 0.0766498 0.008822441 -0.12614244 -0.037074856 0.16829878 0.22031344 0.05048003
-0.16171871 -0.020094845 0.2249754 -0.06170421 0.014362979 -0.013318431 -0.10383921 -0.04911064
-0.17205374 -0.023449 0.044963863 -0.061350644 -0.1103557 -0.079848 0.092347816 0.030789683
-0.046176 -0.16941123 -0.21123673 0.25680408 0.19523709 -0.18096565 0.038490284 -0.033557266
-0.09435302 0.08281727 0.081877686 0.0011382782 -0.12321411 0.06757093 0.11713236 -0.041118726
0.10076391 0.1081676 0.098716006 -0.01396936 0.039096948 0.13689676 -0.009332878 -0.07166095
00000000: 5096 06be 8f81 473d 6e9e a0bd 32b6 ac3e
00000010: f0c4 93bd af5e 003e 3c83 453e 0786 a7bd
00000020: c8c4 983d e572 47bd 9e73 fb3d 6d0f c63c
00000030: 5de4 62be e8a7 533e f4a1 8d3e d14a 3fbe
00000040: 3f6a dbbd c556 fabd 81db 653e 1b59 4cbd
00000050: a323 f93d bd4e 643d 7e34 8e3d cd1d 90bb
00000060: ef50 7bbe 508c d33d 9075 a5bd c10a 003e
00000070: c621 6cbe 19c4 c83d a104 01be 56e6 1ebe
00000080: 6200 d7bc 130a e4bd 360e 95bd 1337 3cbe
00000090: eb05 f93d 9c91 893d add6 09be 39a0 01be
000000a0: 321a 1fbe b001 f0bd 0e6a 2fbd b955 eebd
000000b0: c33d fb3d 3bbf a6bd 3c40 0e3e 7695 16be
000000c0: 45d0 34be e95a 653d 8e06 1a3e d366 88bc
000000d0: 0576 1e3e 637d 7dbd 15f6 8a3d f943 fd3d
000000e0: 671c 943d b402 35be 3188 f93d a9b4 923c
000000f0: 18e1 18be 107f 6cbd 7ab7 12be 9459 cabd
00000100: 9fdd 13be ac74 d1b9 e587 32be 444f aebd
00000110: 0b49 c5bc 7484 8e3e f94f e8bc f01a d13d
00000120: 2a30 053d b30c 923e 1581 f2bd 8708 54bd
00000130: def6 ffbb 0d19 313d fca9 c73d 5335 1fbe
00000140: c8c7 82bd dc4b 0dbe 355c ccbc 11a3 abbd
00000150: 7208 85bc 0006 5b3d 6e9e 86bc 5504 afbd
00000160: a12a 12be 330f 2e3e b8e6 063e 21ea bbbd
00000170: 682f ba3c b07e a2be de8c 1dbd 703d 1c3e
00000180: 8825 233e c8fa 25be cfbe 7f3e 8b66 c73d
00000190: 59a3 cdbd 3263 9a3d d14f b23b 353b 02bd
000001a0: 83e2 54be 2f8e 4e3e d373 00be 4962 e03d
000001b0: aa83 e73d 4fd0 1abd 97bf 1ebe 5079 4dbd
000001c0: 8b24 093e c3b0 acbc 48a1 f9bc 71a8 8dbd
000001d0: 5b75 54bd 3b33 2b3c d9a7 923d d9f8 12be
000001e0: 99b5 60bd 998d 7b3d 87c8 c73d 514f 053e
000001f0: fdbf 423e 8907 f6bb baf7 82bd 3dc3 b6bd
00000200: d764 053e 5f0a 9ebe 736f 273d 962b 38be
00000210: f30d 183e 5e02 91be 8bdc 053e c7c8 883d
00000220: b6f5 1abd 178e 1f3e c4e9 033e 0399 f03d
00000230: a07d 323d e772 d0bd 5c89 27be 139c 6f3d
00000240: e2b8 d23d ed05 1c3e e3e1 44bd ea15 c6bd
00000250: 9a72 023e c5ca 26be 5498 31be 0059 ba3b
00000260: c15f 1ebe 2710 b23c 466e fc3d c719 d7bd
00000270: 60bc d43d d23f b4ba 1a53 a13d e345 8b3d
00000280: 4038 ea3a a5d9 dabd 72d3 12be fd83 8c3c
00000290: 0e90 e7bd 8d78 aabd 560c 9bbc 3a23 b2bd
000002a0: 468a 92bd dbce acbd 0cd0 3c3d 980a 0dbd
000002b0: 4cd1 243e 081c 12be f073 71bc 7acf 923d
000002c0: 35a0 dd3d 8d5e 5f3d 36db 403e b167 8abc
000002d0: 74c6 81bd 3268 a5bd 0321 e0bd e1b4 9fbd
000002e0: 026e fabb a4dc 08bd 7140 353e e986 2fbe
000002f0: 5b35 cb3d 0236 a63e 4da2 81bd f8ea 403e
00000300: e14c 48bd 84dd 423d f723 49be 431e 65be
00000310: dc24 ebbd fedb 0abe 50ed a53d 903a f3bd
00000320: 0269 fa3d 7223 1e3e ef33 49be 727b 533e
00000330: 1f87 cabc a7e4 ac3e b758 f83d 7b60 053e
00000340: ae63 f2bd 92fa 9c3d 008c 103c 7c2b 01be
00000350: cedb 17bd 8456 2c3e d999 613e 26c4 4e3d
00000360: 9799 25be f29d a4bc f45f 663e 8ebd 7cbd
00000370: b352 6b3c 8c35 5abc a7a9 d4bd 3d28 49bd
00000380: db2e 30be 1e18 c0bc 072c 383d d04a 7bbd
00000390: 2b02 e2bd 5987 a3bd da20 bd3d a53a fc3c
000003a0: 0c23 3dbd 237a 2dbe 714e 58be d37b 833e
000003b0: 3bec 473e 0f4f 39be fda7 1d3d 5873 09bd
000003c0: 283c c1bd 1a9c a93d 7daf a73d 4732 953a
000003d0: ae57 fcbd a162 8a3d 17e3 ef3d 1c6c 28bd
000003e0: 4f5d ce3d fa86 dd3d 9e2b ca3d bedf 64bc
000003f0: 1f24 203d aa2e 0c3e ede8 18bc fac2 92bd

0.bias f4 [12]
1.031934 0.022677176 0.30673993 0.07691608 0.14433241 0.53625673 0.735681 -0.4904655
-0.05540469 -1.1464448 0.97631097 0.15498216
00000000: 6a16 843f 7cc5 b93c 040d 9d3e 2e86 9d3d
00000010: e0cb 133e 1f48 093f 9755 3c3f 4b1e fbbe
00000020: 07f0 62bd b4be 92bf 84ef 793f a5b3 1e3e

3.weight f4 [12, 12]
-0.2838538 -0.08438592 0.09557486 0.16446511 -0.087769404 0.20898005 -0.30240962 -0.129777
0.10177275 0.22135991 -0.16298024 0.2350031 0.27613246 -0.030951833 -0.19070221 0.013516269
0.10515908 -0.06216813 0.13935445 -0.15180507 -0.32727602 0.10800028 -0.015653526 -0.06936828
0.11364167 0.17421915 0.23471393 0.23964143 -0.060978897 0.11206549 -0.04838211 -0.15713394
-0.21754192 -0.10118301 -0.10281806 0.03168478 0.29958013 -0.14066863 0.031789586 0.19489738
-0.2385947 0.019924918 -0.040110484 -0.11474585 0.2533225 -0.39567122 0.04399095 0.21514377
0.2293392 -0.1001871 -0.060206134 0.18682647 0.023182021 0.258515 -0.10088526 0.024212267
0.16522734 -0.33867198 0.07343941 0.02995533 0.13659157 -0.04694829 0.024371808 0.25846538
0.079408765 -0.20603503 0.09378681 -0.24407491 0.14844221 -0.1945901 -0.12049225 -0.24842253
0.116155654 0.1412805 0.270614 0.32598618 -0.24975291 0.07857143 0.123280436 -0.14116958
-0.2672488 0.01606724 0.04053773 0.31092647 -0.036882196 -0.019346168 0.1326479 -0.09699046
-0.2190908 -0.25017837 -0.1907357 -0.27607518 0.20437449 0.29607445 0.09947351 -0.15737765
0.055651635 -0.054536458 -0.29157573 -0.121420085 -0.18368405 -0.24106194 -0.036739204 0.041830555
-0.26099348 0.25846785 0.15814038 0.068908155 0.24529815 0.27633017 -0.25986788 0.24434014
-0.053473093 0.21141054 -0.0659357 -0.18038453 -0.13476385 -0.04572655 0.188209 0.28210258
0.041931693 0.15410893 0.041626804 -0.19413683 0.034205332 0.27677327 -0.26031885 0.12256178
-0.12138696 -0.11052463 0.0047761616 -0.18269634 0.41899145 -0.14644364 0.26117033 0.08102194
0.22015072 -0.082632534 0.10764258 -0.0034370285 -0.26108667 -0.005885052 0.26981091 0.13355443
00000000: 4955 91be 86d2 acbd c1bc c33d 8b69 283e
00000010: 72c0 b3bd defe 553e 6fd5 9abe 43e4 04be
00000020: 3b6e d03d 2cac 623e 4be4 26be a7a4 703e
00000030: 3c61 8d3e b38e fdbc 7147 43be 5773 5d3c
00000040: a55d d73d 02a4 7ebd efb2 0e3e ca72 1bbe
00000050: b990 a7be 402f dd3d d33b 80bc f510 8ebd
00000060: f7bc e83d 8166 323e d958 703e 9064 753e
00000070: 02c5 79bd 9782 e53d 522c 46bd b8e7 20be
00000080: 4fc3 5ebe 0a39 cfbd 4692 d2bd e6c7 013d
00000090: 9162 993e 700b 10be cc35 023d 2e93 473e
000000a0: 2b52 74be 9539 a33c e44a 24bd dfff eabd
000000b0: 7db3 813e 6b95 cabe db2f 343d a64e 5c3e
000000c0: e5d7 6a3e e52e cdbd b59a 76bd 704f 3f3e
000000d0: 39e8 bd3c 145c 843e ee9c cebd ce58 c63c
000000e0: 5b31 293e 6a66 adbe 6767 963d e164 f53c
000000f0: a9de 0b3e da4c 40bd 63a7 c73c 9355 843e
00000100: 10a1 a23d d9fa 52be 4d13 c03d c6ee 79be
00000110: 3c01 183e a142 47be a4c4 f6bd 7a62 7ebe
00000120: 04e3 ed3d d6ab 103e eb8d 8a3e a9e7 a63e
00000130: 3abf 7fbe 0fea a03d 747a fc3d c28e 10be
00000140: d6d4 88be 729f 833c e40a 263d c131 9f3e
00000150: c911 17bd db7b 9ebc dad4 073e efa2 c6bd
00000160: 5759 60be 6117 80be 3850 43be ba59 8dbe
00000170: 8c47 513e 1297 973e c5b8 cb3d 9b27 21be
00000180: f8f2 633d 9f61 5fbd 6a49 95be 18ab f8bd
00000190: ac17 3cbe f1d8 76be d97b 16bd 8456 2b3d
000001a0: f0a0 85be e655 843e 8def 213e b81f 8d3d
000001b0: 702f 7b3e 267b 8d3e 670d 85be 4d34 7a3e
000001c0: 9a06 5bbd 017c 583e 4c09 87bd b9b6 38be
000001d0: 89ff 09be c34b 3bbd dcb9 403e c06f 903e
000001e0: 91c0 2b3d bbce 1d3e de80 2a3d cecb 46be
000001f0: e41a 0c3d 3ab5 8d3e 8348 85be ac01 fb3d
00000200: ba99 f8bd bd5a e2bd 5981 9c3b c014 3bbe
00000210: 0c86 d63e 52f5 15be 1eb8 853e d5ee a53d
00000220: 316f 613e 3f3b a9bd b773 dc3d c53f 61bb
00000230: 27ad 85be 65d7 c0bb a824 8a3e 7ec2 083e

3.bias f4 [12]
-1.1233008 0.40308493 0.3630496 0.43939704 0.89298296 0.004648645 0.18107124 0.045245737
-0.47257185 0.7318296 -0.7694693 1.1384164
00000000: 52c8 8fbf 2661 ce3e a3e1 b93e a6f8 e03e
00000010: 889a 643f a953 983b bd6a 393e 9853 393d
00000020: f0f4 f1be 2f59 3b3f f1fb 44bf a1b7 913f

6.weight f4 [5, 12]
0.032125503 -0.031419072 -0.3556548 -0.102037236 -0.20690078 -0.42612103 0.021100651 -0.041325368
0.09386406 -0.5169019 0.2548321 -0.076221354 -0.08224306 -0.70056736 -0.1871351 -0.022761578
0.16194908 0.26238433 -0.08149637 0.018085746 0.102188155 0.1602151 0.041421477 -0.29228002
-0.118717544 -0.17524938 -0.33429348 -0.16744171 0.079879366 -0.80811596 0.0006340242 0.32376924
-0.20057629 -0.20701395 0.27419612 0.06699697 -0.21835989 0.20772618 -0.362949 -0.20182198
-0.3405652 -0.3757709 -0.0814616 0.024956789 0.30539837 -0.08675496 0.15223259 -0.03387478
-0.2783655 -0.115166366 0.060696457 0.0015548468 0.06576991 -0.25337905 0.10734472 -0.06193375
-0.17114212 0.21564624 0.042696673 0.22430082
00000000: 0896 033d 49b1 00bd 6318 b6be e6f8 d0bd
00000010: ccdd 53be 892c dabe 46db ac3c ca44 29bd
00000020: cd3b c03d af53 04bf 5a79 823e f119 9cbd
00000030: 0d6f a8bd 6258 33bf 58a0 3fbe 7d76 babc
00000040: fbd5 253e 3d57 863e 92e7 a6bd 8f28 943c
00000050: 0648 d13d 6d0f 243e 91a9 293d baa5 95be
00000060: 2f22 f3bd 9374 33be 8428 abbe d775 2bbe
00000070: cb97 a33d b0e0 4ebf a534 263a 15c5 a53e
00000080: df63 4dbe 77fb 53be 6f63 8c3e b535 893d
00000090: bc99 5fbe 2cb6 543e 74d4 b9be 6caa 4ebe
000000a0: 905e aebe 0b65 c0be 57d5 a6bd 2e72 cc3c
000000b0: 2d5d 9c3e 96ac b1bd dce2 1b3e 48c0 0abd
000000c0: ec85 8ebe 58dc ebbd d99c 783d 00cc cb3a
000000d0: 60b2 863d e6ba 81be 8cd7 db3d 3eae 7dbd
000000e0: e13f 2fbe 5ed2 5c3e b5e2 2e3d 1daf 653e

6.bias f4 [5]
-0.96014225 0.15890536 -0.48871583 0.644142 0.9569676
00000000: e2cb 75bf 16b8 223e f638 fabe 7de6 243f
00000010: d4fb 743f
